feature_extractor.pt (torch_old, 52669 bytes, 22 tensors)

weight f4 [64, 16]
000000 39 a7 c7 bd bc 18 98 3d 22 f0 64 3e df 81 fe 3d
       -0.09748692 0.07426593 0.22357228 0.12427115
000010 b4 50 a3 bc 6f 0f 6c bc 4a 1b 26 3e 0e 43 c7 bd
       -0.019935943 -0.0144079765 0.16221347 -0.097295865
000020 90 e9 a3 3d 5a ac b4 bd 9d 9e 2f 3e ad ee 5a be
       0.08003533 -0.08821936 0.1715035 -0.2138011
000030 cf 77 0b 3e af 92 0c bb ba 7a b3 be 77 b6 1f bd
       0.13619922 -0.0021449735 -0.3505457 -0.03899237
000040 cd 32 ae 3d bd 1f 53 be fa f0 45 be 2f 9d 1e be
       0.08505783 -0.20617576 -0.19330207 -0.15489648
000050 a8 1d 70 bd f1 b9 28 3e 2d 31 18 3e 39 f9 5d 3d
       -0.058622032 0.16477181 0.14862509 0.054192755
000060 29 2e 36 be 57 74 8b 3e be 35 fa bc 27 8f 98 3d
       -0.17791046 0.27237198 -0.030543204 0.07449179
000070 7f 44 49 3e 13 28 07 bd 55 2e f9 bd 18 32 13 bb
       0.19655035 -0.032997202 -0.1216704 -0.0022460278
000080 c2 98 26 3d 77 77 a6 bd 2c 5e 2a be cf 66 52 3d
       0.040673025 -0.08128255 -0.16637486 0.051367577
000090 82 6d de 3a 03 d2 f1 3d 93 af be bd 9f 96 ea bd
       0.0016969892 0.11807635 -0.09310832 -0.1145451
0000a0 d3 66 7b be 97 91 dc 3d b5 b8 88 be dc f4 87 bd
       -0.24550943 0.107699566 -0.2670342 -0.066385
0000b0 db a1 9e bd e6 5d 80 be c4 88 a0 3d 64 49 34 be
       -0.07745715 -0.2507164 0.07838586 -0.17606121
0000c0 17 96 74 3d 80 9c 75 bd 17 d9 27 3c 34 8f e9 bd
       0.05971345 -0.059963703 0.010244629 -0.11404267
0000d0 06 6b 5a bc c7 dd ba bc 19 6e 9f 3c b2 d2 01 be
       -0.01333118 -0.02281083 0.019461678 -0.1267803
0000e0 fc c8 8b bd af 1a e8 bd 50 58 4a be 14 bf 39 3e
       -0.06825444 -0.113332145 -0.19760251 0.18139297
0000f0 1b d1 23 3e d9 ad f8 bc 6f a8 ee 3d 6c cb 72 bc
       0.15997736 -0.030356335 0.1165322 -0.014819007
000100 84 48 e5 3d 2d bc b3 3c 48 9f 5d 3e 72 e3 2c 3d
       0.11195472 0.021940315 0.21642792 0.042209096
000110 e1 b6 00 be ab ef f2 3d 7b c4 92 be 93 61 69 bd
       -0.12569763 0.11862119 -0.28665528 -0.05697782
000120 a4 df 4b 3d c1 ae 78 bd 9f 9f 17 3e b3 c2 03 3e
       0.049773827 -0.060713533 0.14806984 0.1286724
000130 ec 3a a3 be ba 0d 3b be 7a 1b 60 bd 4c 96 04 be
       -0.3188089 -0.18266955 -0.054713704 -0.12947959
000140 8e 3a 0a be 42 fb 8f 3c 36 9b 35 be 1c 03 20 3b
       -0.134989 0.017575864 -0.1773499 0.0024415916
000150 17 a4 a6 bd b4 a7 88 bd a1 67 62 be 69 43 86 be
       -0.081367664 -0.06672612 -0.22109844 -0.26223305
000160 dd 6d 81 3c 16 7f 3b be 1d b1 28 be 48 c8 81 3e
       0.015799457 -0.18310198 -0.16473813 0.25348115
000170 ba 1a 12 be a3 16 51 3e e9 bf a3 3c b8 34 40 3e
       -0.14268008 0.20418791 0.01998897 0.1877011
000180 0a 72 1b be b9 d7 41 3e e0 46 4a be 83 e2 bc 3c
       -0.15180221 0.18929948 -0.19753599 0.023057228
000190 44 85 0d be 76 27 b7 3e 7e 8b 1d be 62 62 eb bd
       -0.13820368 0.35772294 -0.15385243 -0.114933744
0001a0 f8 9e c1 bc 29 f0 e8 bb 1c 62 0d 3e 9e e2 e0 3d
       -0.023635373 -0.0071087074 0.13806957 0.10980724
0001b0 06 82 63 bd ac 57 90 3c c4 d6 79 3d 92 73 51 3e
       -0.055543922 0.01761993 0.060995832 0.20454243
0001c0 bc 94 4c bc 83 67 46 be 7d 63 2c be 5e 10 58 3e
       -0.012486633 -0.19375424 -0.16834827 0.21099994
0001d0 09 2e 8c 3e 34 69 59 3e 57 b1 34 be a8 ef 8a be
       0.27378872 0.21231538 -0.17645775 -0.27135968
0001e0 9d ee 45 be a8 77 57 be 19 f8 44 be 8f b1 82 3c
       -0.19329305 -0.21041739 -0.19235267 0.015953807
0001f0 4f 13 5f be 48 9d eb 3d 82 50 c6 3a 87 13 bd bc
       -0.2178471 0.115046084 0.0015130194 -0.0230806
000200 ed 49 8c 3c 46 cc 1b 3e ea f1 7e be 85 6c 12 3e
       0.017125094 0.15214643 -0.2489697 0.1429921
000210 d3 2d 6a 3e cc 70 4b 3d 28 c1 f8 bd 0b 06 57 3e
       0.22869043 0.04966812 -0.12146217 0.20998399
000220 d0 15 06 be f7 0e 70 bd b6 e2 cb bd c4 cf a0 be
       -0.13094258 -0.05860802 -0.09955351 -0.31408513
000230 c7 86 b9 bd c2 68 06 3e af 0b 23 be dc be b6 bd
       -0.0905891 0.131259 -0.15922426 -0.08923122
000240 99 f2 17 3e be 12 cf bd 0c 72 ac 3d 65 dc 1b ba
       0.14838637 -0.10110997 0.0842019 -0.0005945622
000250 f7 01 f9 3d 83 f3 99 3d 2e 5f 04 be 3f 14 cb 3c
       0.12158578 0.07517149 -0.12926933 0.024789928
000260 63 a3 5a be 40 e9 5a be 9c 11 5f bd 9e da 9e bd
       -0.2135139 -0.2137804 -0.054460153 -0.07756542
000270 c9 1b 49 3e 9a 65 55 be 07 65 e1 3d 23 4a fd bd
       0.19639505 -0.20839539 0.110055976 -0.12367656
000280 da 6d 86 bc 08 39 5b 3e e0 70 3b bd d2 d7 a3 bc
       -0.016409803 0.21408474 -0.045761943 -0.020000372
000290 aa 0e 0a be 87 d1 b2 be 85 c6 df 3c 6f 69 ea bd
       -0.13482156 -0.34925482 0.027316341 -0.11445891
0002a0 9a bb fd bd 11 ff 81 3e 11 b3 37 bd 1c d0 e9 3b
       -0.12389298 0.25389913 -0.044848505 0.0071354043
0002b0 c4 8c bf 3c 14 17 ce bc 02 bd 74 3d 2a b1 6a 3e
       0.023382552 -0.025157489 0.059750564 0.22919145
0002c0 bd 4e 8e be eb e0 76 bd 2a 26 58 3e da d4 ed 3c
       -0.27794448 -0.060273092 0.21108308 0.02903216
0002d0 4c 77 4d 3d d8 48 2e 3b 01 0c 68 3e f0 f4 4f 3e
       0.0501626 0.0026593711 0.22660829 0.2030828
0002e0 b7 07 aa bd 97 d8 40 3e 3d 9c 24 be aa 3d 31 3e
       -0.08302253 0.18832622 -0.16075225 0.17308679
0002f0 04 30 95 3e d1 2a 1b 3e 61 3e 7e bd 4d eb 03 3e
       0.29138196 0.15153052 -0.062071208 0.12882729
000300 7c 12 2d 3e 65 14 48 bd d4 5f d0 3c 9d 54 0e be
       0.16901582 -0.048847575 0.02543632 -0.13899465
000310 e1 03 81 bd 9f f2 10 3e b1 ad 71 be 45 9c 88 3e
       -0.06299568 0.14155053 -0.23601414 0.26681724
000320 ea 6f a8 3d a7 85 83 be 9e 78 2f be 81 0b 32 3e
       0.08224471 -0.25687906 -0.17135856 0.17387201
000330 f7 02 22 be 66 e9 ef 3c 8c 06 89 3e 97 c2 9e bd
       -0.15821443 0.029286098 0.26762807 -0.07751959
000340 cb c7 0c bd 4d 43 17 3e 7e b2 88 3c 4f c0 69 3e
       -0.034370225 0.14771767 0.016686674 0.22827266
000350 8e 6a 35 3e 39 aa 24 3e b7 45 20 be ff e6 a8 3c
       0.17716429 0.1608056 -0.15651594 0.02061796
000360 c1 5a 16 3e f4 2d fe 3d c5 49 9e be a3 2d 03 3e
       0.14683057 0.124111086 -0.30915657 0.12810378
000370 f4 b3 49 be 07 cb 04 bc ae 0d f0 3d 23 89 00 3e
       -0.19697553 -0.008105046 0.11721359 0.12552314
000380 cf 95 a0 bd 3c 6b 15 be 31 a8 91 ba b6 ed 0c 3e
       -0.07841074 -0.14591688 -0.0011112747 0.13762555
000390 f0 e7 be 3d 28 12 e5 bd 37 49 7e bc 98 2a 4e 3d
       0.09321582 -0.11185104 -0.0155203855 0.05033359
0003a0 74 a0 f8 3c e9 43 fe 3d 8b 41 a3 3d 38 b2 4e be
       0.030349948 0.124152966 0.07971486 -0.20185173
0003b0 fc 58 5d be 8d 84 0d bc 47 62 ea 3d 8e fd 6d be
       -0.21615976 -0.00863756 0.11444526 -0.23241255
0003c0 4c 16 98 3c 2e a9 ff 3c 5a 06 40 3e 0a 3e 32 3e
       0.01856532 0.0312086 0.18752423 0.17406479
0003d0 c7 dd 4c 3e a4 01 d0 3d ee fa 85 bd 72 5d 27 be
       0.20006476 0.10156563 -0.06542002 -0.1634424
0003e0 f7 86 8b 3d 24 b3 8f 3d 71 7b 7a bd 52 25 36 3e
       0.06812852 0.0701659 -0.06115288 0.17787674
0003f0 80 08 90 3d 90 45 1e bd 1d 85 6f be 02 87 42 be
       0.07032871 -0.03864056 -0.23390622 -0.18996814

bias f4 [64]
000000 4d ed fa bd 61 5c 4e 3e bc 14 40 3e fb 2d 2a be
       -0.12252293 0.20152427 0.1875791 -0.16619103
000010 b5 7c ca bd 07 7b 7b 3e 68 12 f8 3d d6 29 9a 3c
       -0.09887067 0.2455865 0.12112886 0.018818777
000020 ac 49 f7 bd 69 70 c8 3d 37 e2 16 3d 73 44 0f be
       -0.12074599 0.097870655 0.03683683 -0.13990955
000030 36 5b 94 bd c9 cf 29 3e b2 29 f0 3d 98 a5 29 3e
       -0.072439596 0.1658317 0.11726703 0.16567075
000040 60 ab 62 be c3 ab d0 bd 55 b3 f5 bc 43 40 27 3e
       -0.22135687 -0.10189011 -0.029992739 0.16333108
000050 f8 65 2c be 1b b5 53 3e 3e 99 4f be df 52 80 3e
       -0.16835773 0.20674555 -0.20273301 0.25063226
000060 ac 2f 49 3e 06 35 33 3d c2 13 00 be 06 05 0c be
       0.19647092 0.04375174 -0.12507537 -0.13673791
000070 be b6 d9 bc ae b4 9c 3d 68 49 e3 3d 49 80 f3 3d
       -0.026576396 0.076516494 0.110979855 0.11889703
000080 fa af 3b 3e ab f3 2d be 56 62 ff 3d 4d b6 c6 3d
       0.18328848 -0.16987483 0.12469928 0.0970274
000090 89 4c 0f be 92 7d 2f 3d 02 40 07 be 90 84 ee 3d
       -0.1399404 0.042844363 -0.13208011 0.11646378
0000a0 4d 37 40 be 4b 10 34 3d 78 ee 72 bc 6d e0 5d bd
       -0.18771096 0.04396085 -0.014827363 -0.054169107
0000b0 f4 b6 3e be 76 01 15 3e b7 84 d5 bc bb e7 58 bb
       -0.18624479 0.14551339 -0.02606426 -0.0033097106
0000c0 75 eb 40 be ed c6 5b 3e 48 a5 0a be f1 0e 5a 3e
       -0.1883982 0.21462603 -0.13539612 0.21294762
0000d0 0c cb d8 3c 87 56 06 be 47 b4 c4 3d 2d 50 ae 3d
       0.026464008 -0.13118945 0.09604698 0.08511386
0000e0 9f de 54 3e 0f 1c 39 bd 9f 9b c6 bd d5 62 1d be
       0.20788048 -0.045192774 -0.09697651 -0.15369733
0000f0 79 80 2d 3c 9e 2c c9 3c 85 f0 67 be 16 2d 21 3e
       0.010589712 0.024557408 -0.22650345 0.15739855

weight f4 [64]
000000 2a 7b 84 3f 94 23 85 3f 21 99 84 3f 1f 0c 82 3f
       1.0350087 1.0401483 1.0359231 1.0159949
000010 55 d3 81 3f 95 04 85 3f 57 3f 79 3f f5 33 7e 3f
       1.0142618 1.0392023 0.97362274 0.9929803
000020 5f 33 70 3f 31 35 70 3f 54 7e 82 3f ee 2e 7f 3f
       0.93828386 0.93831164 1.0194802 0.99680984
000030 11 e9 80 3f 87 e1 82 3f 12 fc 7a 3f d6 75 6e 3f
       1.0071126 1.0225075 0.9804088 0.93148553
000040 7b 44 86 3f 03 1d 82 3f 3f fd 7b 3f ea 2d 7f 3f
       1.0489649 1.0165104 0.984333 0.99679434
000050 5e 25 7d 3f b2 ef 87 3f ff f2 82 3f 68 a9 80 3f
       0.9888514 1.0620024 1.0230407 1.0051699
000060 dc e5 82 3f 02 fc 82 3f 70 c1 7f 3f 78 6f 7f 3f
       1.0226398 1.0233157 0.9990454 0.9977946
000070 ef ed 75 3f 4e d5 73 3f e2 1b 6e 3f df 6a 81 3f
       0.9606618 0.9524735 0.93011296 1.011074
000080 92 9a 75 3f 23 ff 83 3f c3 87 7d 3f cd f5 7c 3f
       0.9593898 1.0312237 0.9903528 0.9881256
000090 a6 d3 83 3f 08 50 82 3f c7 56 82 3f 35 fe 7f 3f
       1.0298965 1.0180674 1.0182732 0.99997264
0000a0 24 78 77 3f 45 26 71 3f 0b 8a 84 3f e7 9b 77 3f
       0.96667695 0.9419902 1.0354627 0.96722263
0000b0 36 23 71 3f d1 ba 7d 3f 8b 9d 7b 3f ce 2a 80 3f
       0.9419435 0.99113184 0.98287266 1.0013063
0000c0 06 57 78 3f 8f 0c 80 3f 6d b0 82 3f 87 34 82 3f
       0.9700779 1.0003833 1.0210091 1.017228
0000d0 18 c0 85 3f 2f 23 7c 3f 34 6e 83 3f 1c 1b 7d 3f
       1.0449247 0.98491186 1.0268006 0.9886949
0000e0 ba 9e 83 3f e3 74 83 3f a5 35 74 3f 57 c3 73 3f
       1.0282815 1.0270046 0.95394355 0.9521994
0000f0 59 7d 82 3f b8 60 84 3f d7 ec 7b 3f 7d c7 82 3f
       1.0194503 1.0342016 0.98408264 1.0217129

bias f4 [64]
000000 e1 46 ad bd 65 92 00 3e 9f e0 88 3d 76 bc 62 3d
       -0.08460785 0.12555845 0.06683468 0.05535551
000010 18 9d 91 3a 93 25 7a bd 8a 7d c4 bd 7b e5 89 bc
       0.001110944 -0.06107099 -0.09594257 -0.016833058
000020 a0 1f bc bc de d5 93 3c b2 59 45 3c 20 df c7 bd
       -0.022964299 0.018046316 0.012045311 -0.097593546
000030 b8 32 c9 bb 03 46 0a bd f4 e2 d2 bd 63 55 86 bc
       -0.0061400793 -0.033758175 -0.10297194 -0.016398137
000040 a8 ab c0 bc d6 5f e7 bd 04 3f af 3d 4b e6 eb bc
       -0.023519352 -0.11297576 0.08556941 -0.028796336
000050 98 62 3d 3d 61 c3 66 3d d5 30 98 bd 06 21 8f 3d
       0.046236604 0.05633867 -0.07431189 0.069887206
000060 0b 28 9d bd 9f 08 3d bc 75 b0 2a 3d 99 a2 84 bd
       -0.07673653 -0.0115377 0.04167219 -0.064763255
000070 d4 22 e8 3b d2 a3 d6 3d e3 c2 aa 3b 17 bd e1 bd
       0.00708423 0.10480465 0.0052112206 -0.11022394
000080 f8 00 25 3b 6b 6e 83 bd 54 d8 c8 bc ec ec df bc
       0.002517758 -0.06417545 -0.024517216 -0.027334653
000090 1f 55 42 3d 80 b0 15 bd f0 b5 72 3d 1f d3 71 bd
       0.04744446 -0.036545277 0.05925554 -0.05903923
0000a0 d3 af 2a bd 06 99 08 bd 7b f3 77 3c 5d 14 ae bd
       -0.041671585 -0.03334906 0.015133734 -0.08499978
0000b0 bd bc 0d 3c 9b f7 6e bd b1 68 6f 3d da 87 75 bd
       0.008650956 -0.058341604 0.05844945 -0.05994401
0000c0 35 d6 6a 3d fb 3e 9a bd 2b 38 11 3c 16 28 87 3d
       0.05733319 -0.07531544 0.008863489 0.06599443
0000d0 6e bf b5 bd 9c d4 c4 3d 0c 23 9b 3d b7 1d 98 bd
       -0.08874403 0.096108645 0.07575044 -0.07427543
0000e0 59 ac cd bc a3 8d 4c 3c 6e 88 b9 bd 9e 3e 93 3d
       -0.025106596 0.012484941 -0.09059225 0.07189678
0000f0 a6 a9 51 3d 86 35 16 3d 8c 1b 18 3d 4a 8f 11 bc
       0.05118718 0.036672138 0.037135646 -0.00888426

running_mean f4 [64]
000000 97 cf 0c 3e d8 e1 13 3e 01 1b 92 be b0 44 c6 be
       0.13751064 0.14441621 -0.28536227 -0.3872428
000010 40 bc 09 be fb 8f 41 bd 80 1f 4b 3e 9d 46 f2 be
       -0.13450718 -0.04725645 0.19836235 -0.473195
000020 23 2f c4 be 1e a3 5a be c0 a6 a1 3e 05 60 2d 3e
       -0.38317212 -0.21351287 0.31572533 0.1693116
000030 95 f0 c9 be 68 10 a1 3e e9 74 d0 bc e4 a7 41 3e
       -0.39441362 0.3145783 -0.025446372 0.18911701
000040 f7 15 a7 be 42 bf 4d bd 42 c0 1d bd 91 9b 48 3d
       -0.32633945 -0.050231226 -0.03851343 0.048976485
000050 1b 65 5b be 4a dc 18 3f 6d 5a b6 be 31 5e 1e 3f
       -0.21425287 0.59711134 -0.35615864 0.61862475
000060 4b 62 77 3e 3e 99 10 3e 1b b8 48 be b7 08 83 be
       0.2415859 0.14120957 -0.1960148 -0.25592586
000070 e4 a7 74 be 15 b6 16 be 86 e2 80 3c 96 66 96 bd
       -0.2389217 -0.14717896 0.015733015 -0.073437855
000080 70 7b 68 3e f3 01 af be f5 e5 11 3f 4f 4d e6 3e
       0.22703338 -0.34181175 0.5699151 0.44980857
000090 f4 40 b8 be 58 1b 93 bd 0a dd 95 3d 98 8d 84 be
       -0.35987055 -0.0718295 0.073175505 -0.25889277
0000a0 09 b6 3a be 1d d9 86 be c0 a7 8a 3d f9 1b 09 ba
       -0.18233503 -0.2633752 0.06770277 -0.00052303035
0000b0 36 5d e3 be 86 1c 9a 3e 83 ac b7 be bf 4d 60 be
       -0.44407052 0.30099887 -0.35873803 -0.21904658
0000c0 7c c5 83 be e3 3e 4e 3e b2 23 2a 3e 69 61 80 bd
       -0.25736606 0.20141177 0.16615179 -0.062685795
0000d0 52 a7 2e 3e 1a 08 84 be 1a cc 6e be 08 55 52 3e
       0.17056015 -0.2578743 -0.23320046 0.2054025
0000e0 d6 73 1b 3e 55 13 39 3c 0b df a5 bd f7 4c a3 3e
       0.15180907 0.011296113 -0.08099183 0.31894657
0000f0 0f 74 5f 3e 08 00 70 3e 5e 8e 75 3c c7 38 05 3e
       0.21821617 0.23437512 0.014987556 0.1300994

running_var f4 [64]
000000 60 a6 bb 3c d0 dc d7 3c 24 a0 16 3d df 24 16 3c
       0.022906482 0.026350409 0.036773816 0.009164064
000010 3b cd d6 3c 70 fe 08 3d 20 1d a1 3c bc 35 44 3d
       0.026220908 0.033445776 0.019667208 0.047902808
000020 2b ce fb 3c fc b6 c0 3c 2e eb 9d 3c 15 f1 0f 3d
       0.030737957 0.023524754 0.019277181 0.035142023
000030 73 2b 12 3d a2 44 d4 3c f8 0a 3f 3c e3 52 6c 3c
       0.035685968 0.025911633 0.01166033 0.014424059
000040 83 e8 2e 3c 1d c3 a9 3c e9 a6 b0 3c 47 d2 c8 3c
       0.010675552 0.02072292 0.021563964 0.02451433
000050 9e ed 65 3c 34 d0 db 3c 16 4d d8 3c bf c6 e3 3c
       0.014033703 0.026832677 0.026403945 0.02780473
000060 b4 34 d3 3c ab 9e 04 3d c9 21 a0 3c 5f 11 d5 3c
       0.025781967 0.03237788 0.01954736 0.02600926
000070 d0 bd b8 3c 5d 6e 33 3c d7 35 a0 3c 34 53 cb 3c
       0.022551447 0.010951606 0.019556923 0.024819948
000080 b9 5c db 3c fa bb ee 3b 7a 56 03 3d 6f 6e e1 3c
       0.026777612 0.007285592 0.032064892 0.02751848
000090 1d 8d a8 3c 51 a4 f8 3c 10 45 4f 3d 57 a7 cb 3c
       0.0205751 0.03035179 0.050602973 0.024860067
0000a0 d9 2a ea 3c b0 6d 01 3d 5c 76 bf 3c dd ea fb 3c
       0.028584884 0.031598747 0.023371868 0.03075164
0000b0 b4 28 d2 3c 11 98 ae 3c eb 22 ea 3c 25 7d bb 3c
       0.025654174 0.021312745 0.028581103 0.022886822
0000c0 55 9a 21 3d 56 95 c0 3c 31 e5 02 3d 55 2b c0 3c
       0.039453823 0.023508709 0.031956855 0.023458162
0000d0 81 f2 9b 3c dd 62 f3 3c 61 4c cb 3c 12 d3 71 3c
       0.019036533 0.029710228 0.024816694 0.014759796
0000e0 b2 11 8b 3c b1 a5 af 3c f4 74 38 3c de a0 fd 3c
       0.016976211 0.021441313 0.011258353 0.030960497
0000f0 c0 6a 86 3c 47 cd 1f 3d 6f fc ad 3c cd 34 e1 3c
       0.016408324 0.039014127 0.021238534 0.027490998

weight f4 [64, 64]
000000 d2 c7 4f 3d cb 00 d9 bd a3 18 8a 3c 5b a7 91 3c
       0.050727673 -0.10595854 0.01685745 0.017779997
000010 2f a0 80 3d c3 2c 18 bd a7 09 0c 3e cb cb 99 bc
       0.062805526 -0.037152063 0.13675557 -0.018773934
000020 62 b1 24 3d 81 79 ac 3d 3f 35 fa bd f2 d6 4b bc
       0.040208228 0.084216125 -0.12217187 -0.012441384
000030 ae 59 4e bd ae 15 1f 3c 40 39 48 3d f3 65 eb bc
       -0.050378494 0.009709759 0.048882723 -0.028735137
000040 0b c7 13 be 48 83 e7 bd 1e 35 53 3d b5 a3 6e bd
       -0.14431398 -0.11304337 0.05156433 -0.058261592
000050 3b 89 1e 3d 4d c5 d2 3d ac 1e 82 bd 58 1d 36 bd
       0.038705092 0.102915384 -0.063535064 -0.044461578
000060 d7 c4 ec bb 30 7f 9d bc 91 fe f6 3b 85 20 1e bd
       -0.0072256136 -0.019225687 0.007537671 -0.03860523
000070 e0 57 36 bd eb d6 83 b9 dd 5d 59 3c 4b 5b d6 3b
       -0.044517398 -0.00025146393 0.013267008 0.0065416447
000080 e7 a3 df bd 66 b2 0b 3e 1f 0b 43 bd 29 37 15 bd
       -0.10919934 0.13642272 -0.047618028 -0.036429558
000090 2e ec 4e 3d 83 80 87 bd 00 8f 02 bd 19 10 94 bc
       0.050518207 -0.066163085 -0.031874657 -0.018074082
0000a0 f3 d7 ce bd 3e f0 f6 3d 2f da 23 bd 48 b7 5b 3d
       -0.10099783 0.12057541 -0.040002998 0.053641587
0000b0 77 ae b3 3d 99 46 8d 3d 94 f1 25 3d 4e ef 2d bd
       0.08773511 0.06898231 0.04051359 -0.042464547
0000c0 5b a5 bd bc ec c5 d1 3d 2b 57 02 3e 04 9e 34 3d
       -0.023150137 0.10242829 0.12728564 0.044096008
0000d0 24 ec 2e be d9 18 2b 3c 4b 6f 5a 3d 24 55 a9 bc
       -0.17082268 0.010442936 0.053328793 -0.020670481
0000e0 57 27 35 bd 09 8c 00 be b9 13 fa bb 80 34 5d 3d
       -0.04422697 -0.12553419 -0.0076317457 0.054005146
0000f0 de da 9c 3d 06 f1 0c 3e 38 52 36 3d eb 39 cd 3d
       0.07658933 0.13763818 0.044512004 0.100208126
000100 68 e3 b2 3d ec cf 18 be cc 47 19 bc 1b ee 24 bc
       0.087347806 -0.14923066 -0.009355497 -0.010066534
000110 57 d6 5e 3d 5d 6f 2c be be 90 66 bd d9 7d fd bd
       0.05440363 -0.16839357 -0.05629038 -0.12377519
000120 6c 3d 82 3d 7d bf dd 3d 96 b3 82 bc b3 57 3f bd
       0.063593715 0.10827539 -0.015954774 -0.046714496
000130 5c 38 1e 3d 01 53 f7 bd 38 ce f0 3c 2d ac f9 3d
       0.038627967 -0.120763786 0.029395208 0.12191043
000140 7d e4 1b be 2b 17 9f 3c d4 ea 15 bb 12 5e 9d 3d
       -0.1522388 0.019420227 -0.0022875564 0.07683958
000150 12 10 57 bc b1 cf 97 3c 26 19 be ba 0b 1f aa bd
       -0.01312639 0.018531652 -0.0014503344 -0.08306702
000160 8f 48 5a bd 4b ed 76 3d fc a0 c5 3d 1e a5 a1 bd
       -0.053291854 0.060284894 0.09649846 -0.07892822
000170 8e 95 bc bc e8 2d 02 bd ff 2a 99 bd a7 3c 81 3d
       -0.023020532 -0.03178206 -0.07478904 0.06310397
000180 42 c1 8e bb ce 0d a2 3d 75 c0 67 3d 07 ac d0 3c
       -0.004356534 0.07912789 0.056580026 0.025472654
000190 19 b1 40 3a 04 4f c7 3d 9e c2 be bb bf 4f 81 bd
       0.00073506084 0.09731868 -0.00582154 -0.063140385
0001a0 33 7d 67 bd 7d ec 42 3d 03 8b 6c 3d 11 d9 2e bd
       -0.056515884 0.047588814 0.05774976 -0.04268748
0001b0 cf 12 f6 bd 47 bb 5a 3d da 18 a2 3c 2c e4 e9 bb
       -0.12015306 0.053401258 0.01978724 -0.007137796
0001c0 8a 06 19 3e f9 0d a5 3d 7c 1d 19 be b0 99 24 bd
       0.149439 0.08059306 -0.14952654 -0.04018563
0001d0 5e fc 0b be b2 ea 08 bd 98 ff fb 3c 8d a6 35 3e
       -0.13670489 -0.033426948 0.030761525 0.17739315
0001e0 07 94 dd 3d 27 26 2f bd a2 dd bf 3b 3e 6d eb 3d
       0.108192496 -0.042760994 0.005855278 0.11495446
0001f0 3f 69 31 bd e3 f1 d1 3d 21 c5 01 bc c7 71 4c 3d
       -0.04331326 0.10251214 -0.007920534 0.049913194
000200 2b 00 4b bb 40 e2 a4 bd 7d c7 af 3d 14 89 c9 3d
       -0.0030975442 -0.08050966 0.08582971 0.09840599
000210 84 d2 35 be 05 63 dc 3d ff cb 7c bc e7 5a f4 bd
       -0.17756087 0.10761074 -0.015429496 -0.11931401
000220 df 39 42 bd d2 df 51 bc 06 9e b3 bd 60 ae df bd
       -0.04741847 -0.012809711 -0.08770375 -0.10921931
000230 e0 36 90 bc 7c 78 21 3e 8f 0c 85 39 70 89 d8 bd
       -0.017604291 0.15768617 0.00025377094 -0.10573089
000240 52 d1 e5 bd 4b 40 f4 bc 43 d2 a8 bd f1 f5 11 be
       -0.11221565 -0.029815814 -0.08243229 -0.14253975
000250 a3 c7 40 be 1c 36 d7 bd bb fd 93 bd de c3 ef 3d
       -0.18826155 -0.105083674 -0.072261296 0.117072806
000260 63 02 de 3c 69 2f 91 3d c4 e6 82 bd 2e ad f0 3d
       0.027100747 0.07089121 -0.06391671 0.117517814
000270 9f fb 26 3e a2 5c 81 bd 1c 90 17 bd f1 72 8b bc
       0.16306923 -0.063164964 -0.037002668 -0.017022582
000280 4c 46 0e 3d ad 89 0b be 6b f2 bc 3d 0e d3 08 3e
       0.03473501 -0.13626738 0.09225925 0.13361761
000290 59 5a 8b bd 99 4a 48 3d 47 ac 90 bd 85 2b 32 3d
       -0.06804342 0.048899267 -0.07064109 0.043498535
0002a0 2f fc 86 3d 3c e1 1f 3d e1 a8 94 bd 69 7a 09 be
       0.06591069 0.03903316 -0.072587736 -0.13425602
0002b0 8e 92 22 3c 19 dd 00 bd 57 5a 28 bd 7a d3 2d 3d
       0.009922637 -0.031460855 -0.04110178 0.042438008
0002c0 10 5e 5f bd 1c 1c 30 3d 28 ca ce bd 33 68 17 3d
       -0.054533064 0.042995557 -0.10097152 0.036964606
0002d0 8a 09 a0 3d 50 e4 ad 3d f8 64 b2 bd d5 33 b4 3c
       0.078143194 0.08490813 -0.087106645 0.021997372
0002e0 81 20 9d 3c 3e 5b 11 be b1 2d cf 3c 8b 8c ae 3d
       0.019180538 -0.14194962 0.025290342 0.085229
0002f0 01 b8 30 bb 30 05 92 3d c8 b1 89 3b 78 96 b7 3d
       -0.0026965144 0.07129896 0.0042021014 0.089642465
000300 a8 38 2d bd 9f fb 25 bd b1 79 0d 3d 5f ff cd bd
       -0.04229036 -0.040523168 0.034539882 -0.10058474
000310 64 4e f4 bd 3f 26 ee 3d 80 9f da bd 57 c2 bc 3d
       -0.11929014 0.116283886 -0.106749535 0.09216755
000320 4e 2d ad bc 71 8e 3a 3d b1 3e 2b bd f5 5f 1c bd
       -0.021139767 0.045546 -0.041807834 -0.03817745
000330 ac 65 00 be 35 96 10 be c4 96 2e 3a d3 2d e4 bc
       -0.12538785 -0.141198 0.0006660039 -0.027853882
000340 74 65 07 bd d7 c1 fa bd 1f 86 5c 3d 05 d2 42 3c
       -0.033055738 -0.12244003 0.053838845 0.011890893
000350 cb d3 60 be bd 33 16 bd d9 97 88 3d a6 ec ff 3d
       -0.21955793 -0.036670435 0.06669588 0.12496309
000360 bb 3b fa 3c 92 0e 10 bd 33 14 95 3d 8e 31 10 bd
       0.03054606 -0.035170145 0.07279243 -0.03520351
000370 17 dd 03 3e 79 de 00 bd 3a 4b 81 3d ff ee c4 bc
       0.12877308 -0.031462166 0.063131765 -0.024039743
000380 5e a3 be bc 6c 8a 85 3d cb bb a0 3c 49 26 23 3d
       -0.023271259 0.065205425 0.019620797 0.039831433
000390 df 32 02 3e e2 0e e2 3d 7c 1b c4 bd 2d 6a 9e bd
       0.12714718 0.11037995 -0.09575555 -0.07735095
0003a0 a0 e8 13 3c b6 83 8a 3c 98 9f fe 3c 8d e8 b2 bd
       0.00902763 0.016908508 0.03108196 -0.08735762
0003b0 01 a4 19 3d 54 e4 89 3c f7 e0 23 3d 4e 3c 79 bd
       0.037509922 0.016832508 0.040009465 -0.060848527
0003c0 99 3e 8d bc a5 61 0c 3d 05 6f 4a 3d 44 2b 6d 3c
       -0.017241763 0.03427281 0.049422283 0.014475647
0003d0 5a a3 55 bd 4a 95 00 be 76 4d 01 3e 37 07 45 3d
       -0.052157737 -0.1255695 0.12627205 0.048102584
0003e0 56 06 a5 bd 83 19 9f 3d cf 94 d3 bd a7 88 c9 bc
       -0.08057849 0.07768538 -0.10331117 -0.024601294
0003f0 b1 ab ae bb 53 fa 94 3d e6 47 c9 3c 7d 0d 35 3e
       -0.005330526 0.07274308 0.024570417 0.17680927

bias f4 [64]
000000 60 3a 89 bd 44 73 d4 bd 41 a9 78 3d 13 13 0a bc
       -0.06700587 -0.10373548 0.060708288 -0.008427399
000010 b6 57 bc bd e1 55 77 bd d7 af de 3d 57 0f cf bd
       -0.09196417 -0.060384635 0.108733825 -0.10110348
000020 ad 38 f6 3d 84 36 c0 3d 0c ec f9 3b 32 1b ff 3d
       0.12022529 0.09385398 0.007627016 0.12456359
000030 d0 94 ef bc a8 d2 83 3b c5 be 8e bc c4 cf 86 3d
       -0.029245764 0.004022915 -0.01742495 0.06582597
000040 7a 99 78 bd 27 45 a4 bb 18 4c b8 3d b0 0f 9e 3d
       -0.06069324 -0.0050131264 0.08998889 0.07717836
000050 c1 d8 70 3d f3 ba a9 bd 97 b9 09 bd 84 f9 df bd
       0.058800463 -0.08287611 -0.033624258 -0.10936263
000060 42 40 6b bd 1b 31 ed 3d 60 b9 0b bc b1 53 e5 3d
       -0.057434328 0.11581632 -0.008528084 0.111976035
000070 36 92 45 3c bb 64 59 bd cb ad ec bd 0a 42 62 bb
       0.012058785 -0.05307458 -0.11556586 -0.0034524226
000080 93 b3 02 3d d9 f3 99 bd f7 05 ca 3d 2d 5c 72 3d
       0.031909537 -0.075172134 0.09864419 0.059169937
000090 f1 f9 e4 3c cf 36 98 bd 33 92 96 bc b9 15 9f bd
       0.027951213 -0.07432329 -0.01838026 -0.07767815
0000a0 2c f7 00 3d 7c 3f f0 bc 6e 7f 2b bd 7a fc ab bd
       0.03148572 -0.029327147 -0.041869573 -0.083977655
0000b0 6f c1 61 bd 51 5f c8 3b 08 eb cf 3d e6 77 95 bd
       -0.055116113 0.006114878 0.101522505 -0.072982594
0000c0 44 74 e0 bd 6b 06 eb bd 60 39 3a 3d 28 af 1b bd
       -0.10959676 -0.114758335 0.045464873 -0.03800884
0000d0 7b 88 b0 3c 01 69 b7 bd e7 cc 62 3a 49 bf 76 3d
       0.021549454 -0.08955575 0.00086517486 0.060241017
0000e0 f1 6c c9 3c c2 b2 ef 3d 50 39 7c 3d 2c 4d f2 bc
       0.02458808 0.11704017 0.061578095 -0.029577814
0000f0 57 af ce 3d e2 c5 eb bd 4c 65 30 bd b6 1b f2 bd
       0.10092037 -0.115123525 -0.043065354 -0.11821692

weight f4 [64]
000000 46 05 85 3f 06 45 6d 3f 44 24 88 3f c9 4f 8e 3f
       1.0392234 0.92683446 1.0636067 1.1118098
000010 b5 09 7b 3f 65 b1 80 3f 33 82 80 3f 6c 9e 6d 3f
       0.98061687 1.0054137 1.0039734 0.9281986
000020 e7 1c 83 3f 9e 50 8a 3f 5f e2 73 3f ee 18 85 3f
       1.0243195 1.0805852 0.9526729 1.0398233
000030 24 d0 80 3f e3 73 6b 3f 78 d5 84 3f 71 03 69 3f
       1.006352 0.91973704 1.0377645 0.91020876
000040 40 0c 85 3f 21 53 6c 3f 7d f8 7d 3f 3e db 71 3f
       1.0394363 0.92314345 0.9920729 0.9447516
000050 64 b5 81 3f f0 b2 83 3f 86 cd 75 3f f0 32 7d 3f
       1.0133481 1.0288982 0.9601673 0.9890585
000060 99 7a 86 3f 5a 62 75 3f 33 f1 8a 3f f8 ef 6e 3f
       1.0506164 0.958532 1.0854858 0.93334913
000070 71 64 84 3f a4 ac 82 3f b1 ba 6f 3f 56 35 7c 3f
       1.0343152 1.0208936 0.93644243 0.98518884
000080 e9 3a 70 3f 74 d4 7c 3f b6 4e 74 3f 04 99 72 3f
       0.9383989 0.9876168 0.95432603 0.94764733
000090 2b a9 7d 3f da 7d 82 3f 77 8a 6e 3f f6 b0 85 3f
       0.99086255 1.0194657 0.9318003 1.0444629
0000a0 d8 04 8f 3f f2 03 7f 3f 8b bd 72 3f a0 6d 85 3f
       1.1173353 0.99615395 0.9482047 1.042408
0000b0 6a 29 7d 3f 44 73 84 3f ba b0 77 3f 3d ce 7c 3f
       0.9889132 1.0347676 0.9675404 0.98752195
0000c0 4e 59 7b 3f 1d 77 78 3f 6e 05 7c 3f 77 1b 85 3f
       0.98183143 0.9705675 0.98445785 1.0399007
0000d0 63 c6 7c 3f 43 3b 91 3f 4b 15 7c 3f 29 c5 7a 3f
       0.98740214 1.134621 0.9846999 0.9795709
0000e0 82 f8 70 3f e3 15 79 3f 89 d8 82 3f 46 e5 7e 3f
       0.9412919 0.9729902 1.0222331 0.99568594
0000f0 f5 9f 7d 3f 0a 46 83 3f c2 98 6f 3f 35 71 6e 3f
       0.990722 1.0255749 0.93592465 0.9314149

bias f4 [64]
000000 e5 16 88 bc b4 c1 95 bd 79 fd 8c bc d0 97 23 bd
       -0.01661248 -0.073123366 -0.017210709 -0.0399397
000010 a1 62 d1 bd a4 0d 9a bd 8f ad 55 bd b5 a2 e6 bc
       -0.1022389 -0.07522133 -0.05216747 -0.028153757
000020 05 7e ba bb 21 b3 15 3d fe 36 0a bd 02 80 19 3b
       -0.005691292 0.036547784 -0.03374385 0.0023422246
000030 f7 88 95 bd 56 43 71 bd d9 a0 ac bd e1 81 af bd
       -0.073015146 -0.058902107 -0.08429117 -0.08569694
000040 83 34 ad bd f8 2e 0e bd 99 f8 38 bd 36 34 69 bc
       -0.084572814 -0.03471276 -0.045158956 -0.014233639
000050 ac 93 93 bd 7e 43 19 bd ae d6 a4 bd 63 58 8e bd
       -0.072059005 -0.03741788 -0.080487594 -0.06950452
000060 9c 2c 69 bd 82 37 86 bc 0e ff 95 bd 6d c4 37 bd
       -0.05692731 -0.01638389 -0.073240384 -0.04486506
000070 9e 6d 4f bd 9f 4c f6 3b 9a 12 8f bd b8 91 e0 3b
       -0.05064165 0.007516458 -0.0698597 0.0068533085
000080 00 26 0d bd 02 5a bb bd 21 f2 1d 3d 95 36 2a bb
       -0.034460068 -0.09148027 0.03856099 -0.0025972475
000090 2b 86 02 bd e9 ee b8 bd ec 68 4b bd ed 6f 81 bc
       -0.031866234 -0.090299435 -0.04966061 -0.01580044
0000a0 5f 6d 72 bd 34 73 2e bd aa 78 9f bd a4 92 4e 3c
       -0.059186336 -0.042590335 -0.07786687 0.012608204
0000b0 2a 6a a2 3d 20 42 5c bd 78 10 a0 bd ab de ae bc
       0.079304054 -0.053774 -0.07815641 -0.02134641
0000c0 4c 90 be bc d1 b3 e4 bc 63 31 31 be 8e 8e 29 bd
       -0.023262165 -0.027917774 -0.17303996 -0.041395716
0000d0 4d 5d 09 bd 54 67 f4 bd 04 58 12 bd c4 73 ad bd
       -0.033536244 -0.11933771 -0.03572847 -0.08469346
0000e0 e0 1a ce bd 00 ba 23 bd 3b 31 8c bd 58 63 46 bd
       -0.1006372 -0.039972305 -0.068453275 -0.048434585
0000f0 7c 89 94 bd 12 28 32 bd 90 b6 73 bd 8b 26 58 bd
       -0.072527856 -0.043495245 -0.059500277 -0.052771132

running_mean f4 [64]
000000 79 71 ed 3c 23 0e 91 bd d1 ec 4f be 3f 6a 17 bd
       0.028984772 -0.070827745 -0.20305182 -0.03696656
000010 b4 a1 85 3e 18 71 29 bd a5 40 d1 be a3 28 96 bd
       0.26099932 -0.04136762 -0.40869632 -0.073319696
000020 fc fd 40 be dc 23 a4 bd cd 0e 05 3d d0 8f 71 3e
       -0.18846887 -0.08014652 0.03248482 0.23590016
000030 68 97 1d be ab 5f 73 bd 3d 64 07 be 95 18 84 3e
       -0.15389788 -0.059417408 -0.13221832 0.25800005
000040 1a e8 13 bd 7d a5 a2 bd f8 90 82 be 43 67 c9 3d
       -0.03611002 -0.07941721 -0.25501227 0.09834149
000050 82 7e 54 3c c0 5e d6 be a6 36 82 be 6f f7 e0 bc
       0.012969615 -0.41869164 -0.25432318 -0.027461736
000060 26 31 92 be 66 3f 2d 3e a5 ad c5 bd 0c 2b c9 3e
       -0.28553122 0.16918716 -0.09652261 0.39290655
000070 a9 1f 6c bd cc e5 cd bd 0f 05 1c be 49 b7 e1 be
       -0.05764738 -0.10053596 -0.15236305 -0.44085148
000080 19 1c b9 3c 74 02 b9 be 01 73 a6 be ec 2d cf 3d
       0.022596406 -0.36134684 -0.32509616 0.10116181
000090 e6 a3 3f 3e 19 e4 50 3e 24 35 8a be ea 7e 49 be
       0.18714866 0.20399512 -0.26993668 -0.1967732
0000a0 4e fa 61 be 14 14 08 bf 77 17 de 3c 53 fd f0 be
       -0.2206814 -0.53155637 0.027110798 -0.4706827
0000b0 10 9c 70 be 01 e3 c9 3e 2a f1 da be 5e 0c cb be
       -0.23497033 0.39431003 -0.4276212 -0.39657873
0000c0 d1 f1 e8 3d 35 59 04 bf 94 b7 1e be d0 3c 49 be
       0.11374248 -0.5169862 -0.15499717 -0.19652104
0000d0 fb 1f 0b bf 2d fd 6c be e1 35 98 be 86 74 77 3e
       -0.54345673 -0.23143454 -0.29728606 0.24165544
0000e0 a3 ce 38 3e d5 95 19 bf b1 0a 93 be a4 b7 11 be
       0.18047576 -0.5999425 -0.28719094 -0.1423021
0000f0 1b 4e 6b 3e 4b a8 1a be 64 8c 33 3d c3 78 06 bf
       0.22979014 -0.15103261 0.04383506 -0.5252802

running_var f4 [64]
000000 ca a9 24 3d e7 de e7 3d dc aa 67 3e 0f 1d 5b 3d
       0.040200986 0.11321812 0.22623771 0.05349451
000010 bb c7 30 3e b9 11 4d 3d 42 79 a7 3d ad fd 1f 3e
       0.17263691 0.05006573 0.08177425 0.15624113
000020 5b b7 9f 3d be 36 13 3e 1e 03 9c 3e 15 00 1a 3e
       0.07798644 0.14376351 0.30471128 0.15039094
000030 74 56 7c 3d b7 6b 74 3e 64 a1 6b 3d fb 7a 15 3e
       0.061605886 0.23869215 0.05752696 0.14597695
000040 a2 6b 45 3d 7a c9 48 3e 08 37 05 3e 26 42 13 3e
       0.04819835 0.19608107 0.13009274 0.14380702
000050 77 91 cb 3d e2 0b 44 3d 8b b1 0b 3e 17 ce 30 3d
       0.099398546 0.047862895 0.13641946 0.043165293
000060 4a c2 b6 3d 5c f4 30 3e dc 70 88 3d f1 d2 88 3e
       0.089237764 0.17280716 0.06662151 0.26723436
000070 b6 30 24 3d d5 f0 8f 3d 84 e5 da 3d a2 f3 21 3e
       0.040085517 0.07028357 0.10688308 0.15815595
000080 87 0d 69 3e e7 57 17 3e f4 77 8c 3e 59 3f 18 3e
       0.22759067 0.14779626 0.27435267 0.14867915
000090 56 b1 0f 3e 05 3c c8 3d 55 6b 31 3e c9 32 73 3d
       0.14032492 0.09777073 0.173261 0.059374604
0000a0 14 15 ea 3c db 3d 92 3d 8f b6 dc 3d 65 39 30 3e
       0.028574504 0.07140704 0.10777008 0.17209394
0000b0 14 3e 0b 3e fc 61 c4 3d 31 65 70 3e 97 1a cb 3d
       0.135979 0.095890015 0.23476101 0.09917181
0000c0 81 f2 62 3e 5c 78 08 3e e9 34 43 3d a4 36 0c 3e
       0.2216282 0.13327163 0.04765788 0.13692719
0000d0 34 e7 c8 3d 5a 2e 5a 3c 84 d5 36 3e 96 27 c4 3d
       0.098097235 0.013316715 0.17854887 0.09577863
0000e0 3c 48 b7 3d db d1 2b 3e 57 bb 66 3e 60 8b 86 3e
       0.089493245 0.16779272 0.22532402 0.2627821
0000f0 3c bc bf 3d 11 25 40 3e 7f da 8b 3e 4f 66 86 3e
       0.09362075 0.1876414 0.27315137 0.2624993

weight f4 [32, 64]
000000 71 7d 3b 3e 71 17 5d 3d bb 6b 95 3c 55 1c 36 3e
       0.18309571 0.053977434 0.018239846 0.17784245
000010 a3 9f da bd e3 9a fb 3d fd 3f 7d 3d 0f be 74 bc
       -0.106749795 0.12285402 0.061828602 -0.014937892
000020 b9 5e f8 3b 07 0b 95 3d 29 9c 61 3c bd 62 97 bd
       0.007579651 0.07277494 0.013770142 -0.0739188
000030 05 b9 ac bd 17 ba 7e 3d b6 d9 dd bc cb 96 a7 3d
       -0.08433727 0.062189188 -0.027081352 0.08183058
000040 09 f2 da 3c 9f 99 b4 3d 3e c3 95 3d ef 21 bf 3d
       0.02672674 0.088183634 0.0731263 0.09332644
000050 05 04 5a bd 8d ca 87 3d 62 ae da bd e8 65 68 bc
       -0.05322649 0.0663043 -0.10677792 -0.014184453
000060 ba 40 24 3d 25 28 d5 3d 89 43 ef bc 94 c3 cf 3d
       0.04010079 0.104080476 -0.029207008 0.101447254
000070 c3 45 eb bd 1a 7c 84 3d 7b 8c 88 bd 4f 27 a3 3d
       -0.11487915 0.06468983 -0.066674195 0.07966482
000080 a9 76 62 bc f6 24 c4 3d ae b5 7b 3d ba 1b ad 3d
       -0.013822236 0.09577362 0.06145256 0.08452554
000090 a8 e9 22 be 92 ac 72 bd b0 13 9a bd 86 37 e6 3d
       -0.15909445 -0.059246607 -0.07523286 0.11241059
0000a0 14 05 17 3c fe 0e 1f be d4 78 75 bc da 91 d8 bd
       0.009217519 -0.15533063 -0.014982421 -0.10574694
0000b0 28 07 ef 3d da ac c6 bd ee 28 52 bb 87 6f c8 3d
       0.11671287 -0.097009376 -0.0032067853 0.09786897
0000c0 ea 5c a9 bb 65 0d ac bd 2b 1d 9d bb b8 4f d3 3d
       -0.005168547 -0.08400992 -0.004794737 0.103179395
0000d0 ce b9 ea bd 3f 93 b0 bd 90 a9 87 3a 8a ec d8 bd
       -0.11461221 -0.08621835 0.0010350216 -0.10591991
0000e0 98 11 70 3b 97 77 aa bd d9 81 3b 3c e1 1f 71 bd
       0.003663158 -0.08323591 0.011444532 -0.058868293
0000f0 65 55 78 bd 66 bf c1 bd 7a f1 af bd d9 ea 8c 3c
       -0.060628314 -0.094603345 -0.0859098 0.017201828
000100 88 1e 96 3d db 49 4a bd d2 5d 9a bd 75 01 e9 3b
       0.07330042 -0.04938684 -0.07537426 0.0071107694
000110 26 0a f9 bd 2f 63 7a 3d 5b 85 43 3d e6 22 d2 bd
       -0.12160139 0.061129745 0.0477346 -0.102605626
000120 e5 c4 b7 3d 71 c8 f0 3d 71 71 c1 3d 50 25 9e 3d
       0.089731015 0.11756981 0.09445465 0.077219605
000130 ed 73 b3 b9 52 8c 47 3e 4f 2d 90 bd 0c b1 f2 3c
       -0.00034227912 0.19487122 -0.07039892 0.029625438
000140 eb 3f 44 3c 01 cc 8f 3d 3e 0a 9e 3d 9d ba 50 bd
       0.01197813 0.070213325 0.07716797 -0.05095922
000150 e3 6c 3d 3d ef 21 15 3e b6 4c 7f 3d 1e 2d d9 bd
       0.04624642 0.14563726 0.062329017 -0.106043085
000160 5b 1e af 3c 7c dc fc bd ea 49 72 3d 31 00 f5 3d
       0.02137678 -0.123467416 0.05915252 0.11962927
000170 97 21 0b 3d 67 dc 14 bd 5d be 8d bd e2 6b 05 bd
       0.03396758 -0.036343005 -0.069210745 -0.03257359
000180 22 68 5e bd 15 f7 0e be 1d 93 68 bd 69 98 e9 3d
       -0.054298528 -0.13961442 -0.056780923 0.11406023
000190 eb 83 ad 3c 2c 15 a3 3d 3b ca 34 3d 8d ea 17 3e
       0.021181067 0.079630226 0.044138175 0.14835568
0001a0 47 5e a1 bd 2c 95 4f 3c 8c 1c a0 bd 5a 02 9d 3d
       -0.0787931 0.012669843 -0.07817945 0.07666464
0001b0 5c fb 81 3d 7d ba 55 bd de 27 5e bb 52 59 cd 3d
       0.06346771 -0.052179802 -0.0033898274 0.10026802
0001c0 81 32 26 3b 42 bf 8f bd bf 25 0c bd 57 02 10 3d
       0.0025359693 -0.070189014 -0.034215685 0.03515848
0001d0 e8 18 29 bd 49 85 a2 bd f3 9b d4 bd ed d3 80 bd
       -0.041283518 -0.079355784 -0.103813075 -0.06290422
0001e0 23 6e 93 bc 51 8c 92 3d c0 18 68 3c d3 2b aa 3b
       -0.017996853 0.071556695 0.014166057 0.0051932125
0001f0 fd aa 6a 3d d9 b7 02 be 64 65 db 3d 1f a9 25 be
       0.057291973 -0.12765445 0.10712698 -0.16177796
000200 55 44 40 3d 2a 7d c7 bd 76 2a 92 bb fe 4b 3b 3a
       0.046940167 -0.0974067 -0.004460628 0.00071448076
000210 36 e9 2a be e5 60 47 bd f5 f5 70 3d 1e ba 2a bd
       -0.16690525 -0.04867639 0.058828313 -0.0416814
000220 f1 8f ab bc 7f b7 93 3d 24 6b 98 3d ed 91 8c 3d
       -0.02094266 0.072127335 0.074423105 0.06863771
000230 94 1c e8 3d 88 ca 30 3d db fd 5b 3d 83 49 96 bd
       0.11333576 0.0431619 0.053708892 -0.0733824
000240 87 27 87 3d e3 79 3e bb 4a 60 af 3d 06 dd a2 bb
       0.06599336 -0.002906435 0.085632876 -0.0049701957
000250 99 d6 dc 3d 6f 11 3d 3e 9b db 05 3d 08 53 8c 3b
       0.10783119 0.18463682 0.032680135 0.004282359
000260 f7 78 8a bc 4c 80 87 3d 7d 52 eb 3c c3 ab b5 bc
       -0.016903384 0.066162676 0.028725857 -0.022176629
000270 4e a0 7e bd e4 76 23 3e 8f 22 c2 3d 5d 8a 14 bc
       -0.062164597 0.15963322 0.09479248 -0.0090661915
000280 b9 18 0d be 55 1b 0a bd e7 ae 26 bd 0d e4 53 bd
       -0.13778962 -0.033717472 -0.040694144 -0.051731158
000290 45 05 0b bd c0 50 c5 3c 4c 00 5c 3d 86 2d ba 3d
       -0.033940572 0.024086356 0.05371122 0.09090714
0002a0 5b e7 44 bd b7 fc db bd 0d 6a 4b 3c 6a df ee bd
       -0.0480722 -0.10741561 0.012415421 -0.116637066
0002b0 b9 64 c0 3b a1 76 6f bd ed 2d 95 3d 59 61 96 bd
       0.005871382 -0.058462743 0.0728415 -0.07342786
0002c0 49 25 c8 3d 4f 86 07 3c c3 5a 08 3d 74 9d 17 3e
       0.097727366 0.008271768 0.033289682 0.14806157
0002d0 84 c7 d8 3c 1a 9d 07 be 1d b3 f9 bd 35 87 05 bd
       0.026462324 -0.13243523 -0.12192366 -0.032599647
0002e0 0e 54 ab bd f9 2c 0e bd a0 23 ae 3d 6d f2 15 be
       -0.083656415 -0.034710858 0.08502889 -0.1464326
0002f0 0a 96 a5 bd cf 10 24 be 03 ae be 3d 5f c8 d5 3b
       -0.08085258 -0.16022037 0.09310534 0.0065241302
000300 66 f3 12 3d e1 41 a3 3c 55 46 1e be aa 8e 15 3d
       0.035876654 0.019928874 -0.15456517 0.03651301
000310 9f ca 54 bd 1f 26 f0 ba d3 43 33 bd e0 13 8f 3b
       -0.051951047 -0.0018321908 -0.043765854 0.004366383
000320 fd ab 17 3e 79 5d a0 3d a2 66 2d 3c 5a 0b da bd
       0.14811702 0.078303285 0.010583552 -0.106466964
000330 84 29 52 3c b4 58 a6 bc 3b bc ec bd 53 c5 0f 3d
       0.012827281 -0.020305969 -0.115593396 0.035100292
000340 de 0d ad 3d e3 b9 46 bd 3f 92 90 3d 5d f2 20 3d
       0.084499106 -0.04851712 0.07059144 0.039293636
000350 9f 93 46 3d 63 b3 03 3c aa bf f9 3d 73 db f3 3c
       0.048480626 0.008038375 0.1219476 0.029767727
000360 fb 34 25 be 94 72 69 bd dd 40 0a 3e 39 43 e5 3d
       -0.16133492 -0.056994036 0.13501306 0.11194462
000370 29 77 02 3e 59 73 36 3d 5c 34 96 bd 6e 2e 95 3c
       0.12740768 0.044543598 -0.073342055 0.018210616
000380 6f 77 fb bc 45 86 76 3d e1 0d a1 bd d9 16 d9 3c
       -0.030696599 0.060186643 -0.07863975 0.026500152
000390 ce 2c a6 bd 0d 1f f2 3d 74 dc b3 ba 62 4b 0a 3e
       -0.081140146 0.11822329 -0.0013722316 0.13505319
0003a0 7b c7 5b bd fd f4 c6 bc 04 0d 6d 3d 22 c4 ae 3c
       -0.053657036 -0.024286741 0.05787374 0.021333758
0003b0 47 28 6a bd cb d0 aa bd bc 1c 77 bc 2f 72 4d 3d
       -0.057167318 -0.08340605 -0.015082534 0.050157722
0003c0 71 34 56 bc fc 38 c2 3d d4 5f 48 bd 1d f3 81 3d
       -0.013074026 0.09483525 -0.048919514 0.06345198
0003d0 4f b7 ea bd 15 40 d1 bd c7 52 aa bd ca fa d0 bd
       -0.114607446 -0.10217301 -0.0831657 -0.10204084
0003e0 d6 e2 79 bd 13 e0 2b bd d1 39 ad bc 87 f8 6f 3d
       -0.061007343 -0.04196174 -0.021145733 0.058586624
0003f0 16 95 92 3d 47 c4 9d bd a5 99 04 3e 3f 3a af bb
       0.07157342 -0.077034526 0.12949236 -0.0053475196

bias f4 [32]
000000 3d aa e8 3c 61 01 d1 3d 84 33 ac bd 9f 22 8c 3d
       0.028401488 0.10205341 -0.08408263 0.06842541
000010 9a 30 40 bd a0 3c 3a bc b8 c4 f2 3d cd 41 8d 3c
       -0.04692135 -0.011366993 0.118539274 0.01724329
000020 a3 3a 90 3c 40 48 ff bd 39 76 60 bd 58 9d 93 bc
       0.017606085 -0.124649525 -0.054800246 -0.018019363
000030 6b 26 f1 3d 3b a1 8c 3d d8 e9 e1 3b a7 49 bd 3d
       0.11774906 0.0686669 0.0068943314 0.09242564
000040 e9 04 ee bd 9f 45 ab 3d d6 0d 83 bd a1 9b 85 3d
       -0.1162203 0.083628885 -0.06399123 0.065238245
000050 1e d1 b3 3d cb 03 a5 3d e2 d6 81 bd 77 8a a9 3d
       0.0878012 0.08057364 -0.06339814 0.08278363
000060 3a 23 00 be 42 13 ce 3d 70 60 04 3d 85 78 75 3d
       -0.12513438 0.10062267 0.032318532 0.05992939
000070 7f e1 26 3b ff ac 8e bd 8b 85 e7 bd 72 8c a0 bc
       0.0025463996 -0.0696659 -0.11304768 -0.01959822

weight f4 [32]
000000 35 96 91 3f 39 a0 8f 3f 63 8f 90 3f 73 f7 90 3f
       1.1373965 1.1220771 1.1293758 1.1325516
000010 1d 08 80 3f 85 cb 95 3f 12 f9 91 3f 8e fe 97 3f
       1.0002476 1.1702734 1.1404135 1.1874559
000020 43 bb 91 3f d2 e6 90 3f 6d ed 89 3f 75 54 94 3f
       1.1385273 1.1320441 1.0775582 1.1588274
000030 42 74 90 3f 72 fa 92 3f 6f 1d 8e 3f 50 d6 95 3f
       1.1285479 1.148268 1.1102732 1.1706028
000040 f8 f5 91 3f da ed 8e 3f 3d 4e 8d 3f cb d4 94 3f
       1.1403189 1.1166337 1.1039501 1.1627439
000050 d2 e2 82 3f 73 2d 94 3f 36 d2 76 3f 3c 34 92 3f
       1.022547 1.157637 0.96414506 1.1422191
000060 8d cf 90 3f 6d da 93 3f bd df 83 3f 10 3b 8c 3f
       1.131334 1.1551033 1.0302655 1.0955524
000070 c7 50 93 3f b1 c9 73 3f d4 8c 8f 3f 32 47 94 3f
       1.1509026 0.9522963 1.1214852 1.1584227

bias f4 [32]
000000 6c 2d 07 3e 5f 87 f7 3d 2f bd 01 3e af fc 07 3e
       0.13200921 0.12086367 0.12669824 0.13279985
000010 30 2e 87 bc 1a d2 31 3e 99 26 09 3e dc 94 3e 3e
       -0.016501516 0.17365304 0.1339363 0.18611473
000020 fe 29 11 3e 7f 97 02 3e cc c4 7c 3c e5 db 21 3e
       0.14176175 0.12753104 0.015427779 0.1580654
000030 11 8c fa 3d 8e ae 11 3e 6e 15 d8 3d 9e 1a 35 3e
       0.12233747 0.14226744 0.105509624 0.17685935
000040 cc 4d 0d 3e e7 4e ed 3d 0e 64 37 3d da 61 23 3e
       0.13799208 0.11587315 0.044773154 0.15955296
000050 4d 48 88 bc 3c b3 22 3e 78 31 56 bd 5c 56 0a 3e
       -0.016636038 0.15888685 -0.05229327 0.13509506
000060 d3 c0 02 3e 12 b0 1c 3e 64 89 83 bd 35 31 15 3d
       0.12768869 0.1530154 -0.064226896 0.03642388
000070 50 d6 1e 3e 03 1c 2b bd b3 9e b9 3d fe 15 2c 3e
       0.15511441 -0.04177476 0.090634726 0.16805264

running_mean f4 [32]
000000 98 17 f2 3d ad 99 93 3e fb cf 86 bd 37 4f 05 3e
       0.118209064 0.28828183 -0.06582638 0.130185
000010 ac 46 43 3e 81 13 0e 3d 4a 29 22 be 3b 9f b3 bc
       0.19069928 0.03468657 -0.15836063 -0.021926513
000020 a3 95 96 3e 1d 7b 13 bd 9d a7 0b 3e fa 7d e5 bd
       0.2941104 -0.03600608 0.13638158 -0.11205669
000030 95 0e 77 3e 20 79 c0 3d 93 c1 aa 3e 6a dd b1 3e
       0.24126656 0.09398103 0.3335081 0.34739238
000040 9a 79 8e 3d 65 da 00 3d 81 82 30 3e 1a 97 c6 bd
       0.069567874 0.031458277 0.17237283 -0.09696789
000050 de 62 b6 3e 8d 86 50 3e fc a1 8e be 22 37 77 3e
       0.35622305 0.20363827 -0.2785796 0.24142125
000060 fb ae e3 be 05 4f 42 3e b3 c3 c2 be 1a 0d 28 3f
       -0.44469437 0.18975456 -0.38039932 0.6564499
000070 b3 8b 08 3a 16 2a 58 be ed 6e 21 3e 95 cf 56 3d
       0.0005208805 -0.21109805 0.15764971 0.05244406

running_var f4 [32]
000000 63 01 ba 3d 19 b7 14 3e d6 a9 7a 3d 99 c9 af 3d
       0.09082296 0.14522971 0.061197124 0.085833736
000010 05 10 e9 3d 4c 66 13 3d 95 19 f6 3c 40 8e 0b 3e
       0.113800086 0.03598623 0.030041495 0.13628483
000020 59 c2 b9 3d 20 27 15 3d f8 f1 15 3e 0f 30 90 3d
       0.09070272 0.036414266 0.14643085 0.070404164
000030 47 fe 19 3e 31 81 3a 3d 4a a6 38 3e 6e cc bc 3d
       0.15038405 0.045533363 0.18032184 0.09218679
000040 13 12 0c 3e ef 3c b5 3d d4 f2 83 3d 4d 5c 03 3d
       0.1367877 0.08849513 0.064428 0.032070447
000050 e8 06 21 3e 5c 1a e1 3d 33 3e e3 3c 69 f2 69 3e
       0.15725291 0.10991356 0.02773962 0.22846378
000060 83 2b 86 3d 28 d1 c4 3d ec e0 02 3d 96 9a 10 3e
       0.06551268 0.09610206 0.031952783 0.1412147
000070 a7 4c 64 3d 5b 76 a5 3d 99 d3 b8 3d ec f2 53 3d
       0.055737164 0.08079215 0.09024734 0.05174534

weight f4 [5, 32]
000000 0b 42 77 3e 82 13 46 3e 4f a9 86 3e cd ae 64 3e
       0.24146287 0.19343379 0.26301047 0.22332306
000010 a9 b6 1f bd 6e c8 43 3e 6a e4 1b 3e 0d f9 0b 3e
       -0.038992558 0.19119427 0.15223852 0.13669224
000020 7b 3a 70 3e f6 9c 7b 3e 1c 96 a4 3b 0f 48 2e 3e
       0.23459809 0.24571595 0.0050227772 0.17019676
000030 97 35 29 3e 8f 66 a8 3d 65 2d 8a 3e 24 8e 56 bd
       0.16524349 0.082226865 0.26987758 -0.05238165
000040 e7 d2 77 3e 5f 4a 32 3e 4a 11 d3 bd 02 ea 9e 3c
       0.24201547 0.17411183 -0.10306032 0.019398693
000050 f1 c2 0b 3d e5 20 d4 3d fc 43 7f bd 40 b6 e7 3d
       0.034121457 0.10357837 -0.062320694 0.11314058
000060 3d ef 79 3e 62 83 1b 3e 35 c4 0b be 38 6b 8b bd
       0.24407668 0.15186837 -0.13649066 -0.0680756
000070 7d a6 8a bc 3d 35 18 3d c7 46 a9 bd 11 cc 4a 3e
       -0.01692509 0.037160147 -0.08265453 0.19804408
000080 37 d7 e2 3d 92 6e 3e 3e 8d 56 96 3d e0 0d f1 3d
       0.11076205 0.18596867 0.07340727 0.117702246
000090 23 7a 82 3d 7c 1d 15 3d 18 ed 51 3e a1 ed b9 3d
       0.06370952 0.03640507 0.205006 0.09078527
0000a0 fe 61 b0 3d 68 cf 80 3e d8 71 95 bd b4 c6 c1 3d
       0.086124405 0.25158238 -0.072971046 0.09461728
0000b0 10 f2 4d 3e 9f 42 88 3e 63 10 49 3e 7f 87 7f 3e
       0.20111871 0.26613328 0.19635157 0.24954031
0000c0 f0 b1 69 3c 19 31 2c 3e c3 c8 97 3d be 64 8d 3e
       0.014263615 0.16815604 0.07411339 0.27615923
0000d0 54 89 9a bd 0b 9b 1a 3e ee 1e c4 bd 6b 5f 75 3e
       -0.075457245 0.15098207 -0.09576212 0.2396218
0000e0 b1 3a 19 3e 4d de b6 3d 49 50 fa bd bb be 02 3d
       0.14963795 0.08929119 -0.122223444 0.031920176
0000f0 e2 9d 4f 3e 13 54 b7 bd 92 2b 1d 3e 11 0d 35 3d
       0.20275071 -0.08951583 0.15348652 0.044201914
000100 cb 7e ed 3d ee 7b d2 3c 53 99 5a 3e 43 e1 ef 3d
       0.115964495 0.02569386 0.21347551 0.11712887
000110 bd 5b 00 3d f3 1d 9c 3e 1d f4 2f 3e be d6 c1 3d
       0.03133749 0.304916 0.17182966 0.09464787
000120 fe 6e dd 3c 19 eb a8 3e de 4d 97 3e 01 2b 96 3d
       0.027030464 0.32991865 0.29551595 0.07332421
000130 f2 18 a4 3e 3b 71 6a 3e a9 bc e8 3d c1 0b b1 3e
       0.32050282 0.22894756 0.11364109 0.3457928
000140 f2 64 93 3e a1 3b 63 3c e8 3a 97 3e c9 0b 23 3e
       0.28787953 0.013869197 0.2953713 0.15922464
000150 23 87 60 3e 0a 07 06 3d 0c 77 76 bd 33 3c 42 3e
       0.2192655 0.032721557 -0.060172126 0.18968277
000160 92 8c 5d 3e d2 67 a3 3e ee 4b 54 bd 2d b9 95 3e
       0.21635655 0.31915146 -0.051830225 0.2924284
000170 21 0e 0f 3e 77 a4 a5 3c a0 60 69 3e 4d 1a ac 3c
       0.13970234 0.020220025 0.22790766 0.021008635
000180 dd f8 69 3e 4d b5 2b 3d 4b 94 ae 3d d5 ed 3b 3e
       0.2284884 0.04192095 0.085243784 0.18352444
000190 7e fd 9c bd 63 a6 91 3d cd 52 63 3e 83 ab f3 3d
       -0.07665537 0.07111814 0.22199555 0.11897948
0001a0 81 b1 e1 3d 75 a8 87 3d 89 f3 7b 3e 3f a8 93 3e
       0.11020184 0.066239275 0.2460462 0.288393
0001b0 c9 2a e4 3d 4e 44 9f 3e 7b 0d 12 3d df 0d ab 3d
       0.11140973 0.311068 0.035657387 0.08352255
0001c0 db bf 3a 3e d7 f1 08 3e 6e e1 84 3e 83 f7 d4 3d
       0.1823725 0.13373505 0.2595324 0.103987716
0001d0 d0 88 e7 3d c4 cd 53 3e fb 47 30 bc fa db ad 3d
       0.11305392 0.20683962 -0.010759349 0.08489223
0001e0 95 7a 31 3d 5c 4e 5f 3d ee 4b ee bd 14 50 75 3e
       0.043329794 0.05451809 -0.11635576 0.23956329
0001f0 2a 13 38 3e 0b 8a 90 bd d8 d2 8e 3e 80 7b 63 3e
       0.1797606 -0.070575796 0.27895236 0.2221508
000200 07 23 60 3e 1a 92 35 3e 38 00 b6 3d 3b 0e 7b 3e
       0.21888362 0.17731515 0.088867605 0.24517147
000210 e5 58 61 3e ce fb 16 3e f6 4e 8a 3d 2e 35 b0 3e
       0.22006567 0.14744493 0.06753342 0.34415573
000220 38 96 76 3e 87 2e 77 3e b3 25 19 3e 84 e1 b0 3e
       0.24080741 0.24138843 0.14955787 0.34547055
000230 a3 d7 ba 3d 08 df 1a 3e 31 df a8 3d 35 65 93 3e
       0.09123161 0.15124142 0.082456954 0.28788152
000240 ca fe a9 3d 04 68 63 3d d2 75 bc 3d 54 f4 24 3e
       0.0830055 0.05551912 0.0920216 0.16108829
000250 65 78 36 3e f8 c6 18 3e bf a0 76 bd 49 09 7f 3e
       0.17819364 0.1491965 -0.060211893 0.24905886
000260 1c 71 31 3e 96 87 a0 3d 85 b1 be be 97 0a 8e 3e
       0.17328304 0.07838361 -0.37244812 0.27742454
000270 cb 57 ec 3d f4 24 72 3e c1 e2 e0 3d f5 eb 5d 3e
       0.11540183 0.23646909 0.1098075 0.21672042

bias f4 [5]
000000 60 e5 5e 3e 57 10 44 3e ac ae fb 3b 47 6d 31 3e
       0.21767187 0.19146858 0.0076807346 0.17326842
000010 80 b7 b8 3e
       0.360775

weight f4 [2, 5]
000000 33 21 04 3f f1 20 d2 3e e4 8b e3 3e 6b 44 e2 3d
       0.5161316 0.41040757 0.44442666 0.11048206
000010 70 52 f4 3e b4 ec cc bd 49 d5 25 be 58 58 f3 3d
       0.47719145 -0.10006085 -0.16194643 0.118820846
000020 01 fb 82 be bc ff bb bd
       -0.25582126 -0.09179637

bias f4 [2]
000000 17 27 0c be 4e db a3 3e
       -0.13686787 0.32003254
